_________________________________________________________________
Layer (type)                 Output Shape              Param #   
=================================================================
conv2d_186 (Conv2D)          (None, 64, 64, 32)        896       
_________________________________________________________________
leaky_re_lu_96 (LeakyReLU)   (None, 64, 64, 32)        0         
_________________________________________________________________
dropout_96 (Dropout)         (None, 64, 64, 32)        0         
_________________________________________________________________
conv2d_187 (Conv2D)          (None, 32, 32, 64)        18496     
_________________________________________________________________
zero_padding2d_20 (ZeroPaddi (None, 33, 33, 64)        0         
_________________________________________________________________
batch_normalization_149 (Bat (None, 33, 33, 64)        256       
_________________________________________________________________
leaky_re_lu_97 (LeakyReLU)   (None, 33, 33, 64)        0         
_________________________________________________________________
dropout_97 (Dropout)         (None, 33, 33, 64)        0         
_________________________________________________________________
conv2d_188 (Conv2D)          (None, 17, 17, 128)       73856     
_________________________________________________________________
batch_normalization_150 (Bat (None, 17, 17, 128)       512       
_________________________________________________________________
leaky_re_lu_98 (LeakyReLU)   (None, 17, 17, 128)       0         
_________________________________________________________________
dropout_98 (Dropout)         (None, 17, 17, 128)       0         
_________________________________________________________________
conv2d_189 (Conv2D)          (None, 17, 17, 256)       295168    
_________________________________________________________________
batch_normalization_151 (Bat (None, 17, 17, 256)       1024      
_________________________________________________________________
leaky_re_lu_99 (LeakyReLU)   (None, 17, 17, 256)       0         
_________________________________________________________________
dropout_99 (Dropout)         (None, 17, 17, 256)       0         
_________________________________________________________________
conv2d_190 (Conv2D)          (None, 17, 17, 512)       1180160   
_________________________________________________________________
batch_normalization_152 (Bat (None, 17, 17, 512)       2048      
_________________________________________________________________
leaky_re_lu_100 (LeakyReLU)  (None, 17, 17, 512)       0         
_________________________________________________________________
dropout_100 (Dropout)        (None, 17, 17, 512)       0         
_________________________________________________________________
flatten_20 (Flatten)         (None, 147968)            0         
_________________________________________________________________
dense_39 (Dense)             (None, 1)                 147969    
=================================================================
Total params: 1,720,385
Trainable params: 1,718,465
Non-trainable params: 1,920
_________________________________________________________________
_________________________________________________________________
Layer (type)                 Output Shape              Param #   
=================================================================
dense_40 (Dense)             (None, 16384)             1654784   
_________________________________________________________________
reshape_20 (Reshape)         (None, 8, 8, 256)         0         
_________________________________________________________________
up_sampling2d_73 (UpSampling (None, 16, 16, 256)       0         
_________________________________________________________________
conv2d_191 (Conv2D)          (None, 16, 16, 256)       590080    
_________________________________________________________________
batch_normalization_153 (Bat (None, 16, 16, 256)       1024      
_________________________________________________________________
activation_91 (Activation)   (None, 16, 16, 256)       0         
_________________________________________________________________
up_sampling2d_74 (UpSampling (None, 32, 32, 256)       0         
_________________________________________________________________
conv2d_192 (Conv2D)          (None, 32, 32, 256)       590080    
_________________________________________________________________
batch_normalization_154 (Bat (None, 32, 32, 256)       1024      
_________________________________________________________________
activation_92 (Activation)   (None, 32, 32, 256)       0         
_________________________________________________________________
up_sampling2d_75 (UpSampling (None, 64, 64, 256)       0         
_________________________________________________________________
conv2d_193 (Conv2D)          (None, 64, 64, 128)       295040    
_________________________________________________________________
batch_normalization_155 (Bat (None, 64, 64, 128)       512       
_________________________________________________________________
activation_93 (Activation)   (None, 64, 64, 128)       0         
_________________________________________________________________
up_sampling2d_76 (UpSampling (None, 128, 128, 128)     0         
_________________________________________________________________
conv2d_194 (Conv2D)          (None, 128, 128, 128)     147584    
_________________________________________________________________
batch_normalization_156 (Bat (None, 128, 128, 128)     512       
_________________________________________________________________
activation_94 (Activation)   (None, 128, 128, 128)     0         
_________________________________________________________________
conv2d_195 (Conv2D)          (None, 128, 128, 3)       3459      
_________________________________________________________________
activation_95 (Activation)   (None, 128, 128, 3)       0         
=================================================================
Total params: 3,284,099
Trainable params: 3,282,563
Non-trainable params: 1,536
_________________________________________________________________
Reading directory -> drive/My Drive/faces94
Reading directory -> drive/My Drive/faces94/female
Reading directory -> drive/My Drive/faces94/female/klclar
Reading directory -> drive/My Drive/faces94/female/sbains
…
