_________________________________________________________________
Layer (type)                 Output Shape              Param #
=================================================================
conv2d_144 (Conv2D)          (None, 64, 64, 32)        896
_________________________________________________________________
leaky_re_lu_66 (LeakyReLU)   (None, 64, 64, 32)        0
_________________________________________________________________
dropout_66 (Dropout)         (None, 64, 64, 32)        0
_________________________________________________________________
conv2d_145 (Conv2D)          (None, 32, 32, 64)        18496
_________________________________________________________________
zero_padding2d_14 (ZeroPaddi (None, 33, 33, 64)        0
_________________________________________________________________
batch_normalization_53 (Batc (None, 33, 33, 64)        256
_________________________________________________________________
leaky_re_lu_67 (LeakyReLU)   (None, 33, 33, 64)        0
_____________________________________________s____________________
dropout_67 (Dropout)         (None, 33, 33, 64)        0
_________________________________________________________________
conv2d_146 (Conv2D)          (None, 17, 17, 128)       73856
_________________________________________________________________
batch_normalization_54 (Batc (None, 17, 17, 128)       512
_________________________________________________________________
leaky_re_lu_68 (LeakyReLU)   (None, 17, 17, 128)       0
_________________________________________________________________
dropout_68 (Dropout)         (None, 17, 17, 128)       0
_________________________________________________________________
conv2d_147 (Conv2D)          (None, 17, 17, 256)       295168
_________________________________________________________________
batch_normalization_55 (Batc (None, 17, 17, 256)       1024
_________________________________________________________________
leaky_re_lu_69 (LeakyReLU)   (None, 17, 17, 256)       0
_________________________________________________________________
dropout_69 (Dropout)         (None, 17, 17, 256)       0
_________________________________________________________________
conv2d_148 (Conv2D)          (None, 17, 17, 512)       1180160
_________________________________________________________________
batch_normalization_56 (Batc (None, 17, 17, 512)       2048
_________________________________________________________________
leaky_re_lu_70 (LeakyReLU)   (None, 17, 17, 512)       0
_________________________________________________________________
dropout_70 (Dropout)         (None, 17, 17, 512)       0
_________________________________________________________________
flatten_25 (Flatten)         (None, 147968)            0
_________________________________________________________________
dense_58 (Dense)             (None, 1)                 147969
=================================================================
Total params: 1,720,385
Trainable params: 1,718,465
Non-trainable params: 1,920
_________________________________________________________________
_________________________________________________________________
Layer (type)                 Output Shape              Param #
=================================================================
input_36 (InputLayer)        (None, 128, 128, 3)       0
_________________________________________________________________
conv2d_149 (Conv2D)          (None, 128, 128, 32)      896
_________________________________________________________________
max_pooling2d_34 (MaxPooling (None, 64, 64, 32)        0
_________________________________________________________________
conv2d_150 (Conv2D)          (None, 64, 64, 64)        18496
_________________________________________________________________
max_pooling2d_35 (MaxPooling (None, 32, 32, 64)        0
_________________________________________________________________
conv2d_151 (Conv2D)          (None, 32, 32, 128)       73856
_________________________________________________________________
max_pooling2d_36 (MaxPooling (None, 16, 16, 128)       0
_________________________________________________________________
flatten_26 (Flatten)         (None, 32768)             0
_________________________________________________________________
dense_59 (Dense)             (None, 128)               4194432
_________________________________________________________________
dense_60 (Dense)             (None, 100)               12900
_________________________________________________________________
dense_61 (Dense)             (None, 128)               12928
_________________________________________________________________
dense_62 (Dense)             (None, 32768)             4227072
_________________________________________________________________
reshape_12 (Reshape)         (None, 16, 16, 128)       0
_________________________________________________________________
conv2d_152 (Conv2D)          (None, 16, 16, 128)       147584
_________________________________________________________________
up_sampling2d_34 (UpSampling (None, 32, 32, 128)       0
_________________________________________________________________
conv2d_153 (Conv2D)          (None, 32, 32, 64)        73792
_________________________________________________________________
up_sampling2d_35 (UpSampling (None, 64, 64, 64)        0
_________________________________________________________________
conv2d_154 (Conv2D)          (None, 64, 64, 32)        18464
_________________________________________________________________
up_sampling2d_36 (UpSampling (None, 128, 128, 32)      0
_________________________________________________________________
conv2d_155 (Conv2D)          (None, 128, 128, 3)       867
=================================================================
Total params: 8,781,287
Trainable params: 8,781,287
Non-trainable params: 0
_________________________________________________________________
Reading directory -> drive/My Drive/faces94
Reading directory -> drive/My Drive/faces94/female
Reading directory -> drive/My Drive/faces94/female/klclar
Reading directory -> drive/My Drive/faces94/female/sbains
…
